model/LSTM_model.pt (torch, 10787 bytes, 6 tensors)

weight_ih_l0 f4 [80, 3]
0	0x3d9c3976	0.07628147
1	0x3e49f807	0.19723521
2	0xbeb39257	-0.35072586
3	0x3eb7f230	0.35926962
4	0xbd98b6f5	-0.07456771
5	0x3cea1415	0.028574029
6	0x3db5b29e	0.08871959
7	0x3ea04f7d	0.31310645
8	0xbe2d3465	-0.16914518
9	0xbefe37aa	-0.49651843
10	0xbe8fce1f	-0.28086945
11	0xbf062147	-0.5239453
12	0x3c68c43d	0.014206943
13	0x3dfd8e2b	0.12380632
14	0x3ea6ced3	0.3257967
15	0x3c37f403	0.0112276105
16	0x3e261f6d	0.16222925
17	0xbd8718a8	-0.065965
18	0xbd3fe85e	-0.046852462
19	0x3e853928	0.2602017
20	0xbe4be72a	-0.19912401
21	0xbedf5114	-0.43616545
22	0xbedde1c7	-0.43336317
23	0x3f203284	0.6257708
24	0xbe75889d	-0.23977895
25	0xbd62e46d	-0.055393625
26	0x39c2c791	0.00037151252
27	0xbe094f57	-0.13409172
28	0xbd1162ba	-0.035494544
29	0xbed05f69	-0.40697792
30	0x3efbd810	0.4918828
31	0x3db88275	0.09009258
32	0x3cc8f246	0.024529587
33	0x3e68c954	0.2273305
34	0x3e4571e8	0.19281733
35	0x3e5c475d	0.21511598
36	0x3e19aab9	0.15006532
37	0x3e970731	0.29497674
38	0xbe537e22	-0.20653585
39	0x3e88fdeb	0.26756224
40	0x3e86bd94	0.26316512
41	0x3d3f5a97	0.046717253
42	0x3e6053e2	0.21906999
43	0x3dc6af51	0.09701408
44	0xbdb5996a	-0.08867152
45	0xbe53b931	-0.20676114
46	0x3e795525	0.24348886
47	0x3e8eb167	0.27869722
48	0xbe122879	-0.14273252
49	0xbe7e0c02	-0.24809268
50	0x3e29b68a	0.1657354
51	0xbe9c3960	-0.30512524
52	0xbe02f5ab	-0.12789027
53	0x3ecd2310	0.40065813
54	0x3e592a61	0.21207573
55	0xbd3914df	-0.04518592
56	0xbdd9686d	-0.10615621
57	0xbe87e249	-0.2653983
58	0xbd265152	-0.040604897
59	0x3d8aec56	0.06783359
60	0x3db19088	0.08670145
61	0x3c365847	0.011129445
62	0xbdd18dc3	-0.10232117
63	0x3ded689f	0.115922205
64	0x3e452e7b	0.19256012
65	0x3d824178	0.063601434
66	0x3e78e42a	0.24305788
67	0xbe48f95a	-0.1962637
68	0xbe9b44d5	-0.30325952
69	0xbea0d761	-0.3141432
70	0xbba03fe1	-0.0048904275
71	0xbd58a316	-0.052889906
72	0x3e8a0da2	0.26963526
73	0xbd7495f4	-0.05971332
74	0xbe6e9675	-0.23299582
75	0x3bc85e8b	0.006114786
76	0x3dd30974	0.103045374
77	0x3cf4623a	0.029831994
78	0x3c803d9f	0.015654383
79	0x3e145d57	0.14488731
80	0xbe338e88	-0.1753484
81	0xbe744700	-0.2385521
82	0xbb8580f0	-0.0040742084
83	0x3d55d7b0	0.05220765
84	0x3e4f87de	0.20266673
85	0x3cb2f80e	0.021846797
86	0x3d942493	0.072335385
87	0xbe70569d	-0.2347054
88	0xbe8591b8	-0.26087737
89	0xbe6a0f52	-0.22857407
90	0x3e38f5f4	0.18062574
91	0x3de17f20	0.11010575
92	0xbcc6f3aa	-0.02428611
93	0x3e83bf73	0.25732002
94	0xbd631f6d	-0.05544989
95	0x3e03aa95	0.1285804
96	0x3e8cca52	0.27498108
97	0xbcbe4a3f	-0.023228763
98	0xbe86e00a	-0.26342803
99	0xbcdb05fe	-0.026736256
100	0x3d04181f	0.032249566
101	0x3e2fdcb4	0.17174035
102	0x3d67b3a5	0.056567807
103	0xbe554935	-0.20828708
104	0xbda22e3c	-0.07918975
105	0xbdd9c364	-0.10632971
106	0xbdad4372	-0.0846013
107	0xbcdf83ef	-0.02728459
108	0xbe97dd83	-0.29661188
109	0xbe3a9467	-0.18220674
110	0x3ea97c43	0.33102617
111	0x3cc0391e	0.023464736
112	0x3e45a97c	0.19302934
113	0xbe9e9037	-0.30969402
114	0xbc184b2e	-0.009295268
115	0xbd13293a	-0.03592799
116	0x3dbd627f	0.09247302
117	0xbe9d3943	-0.3070775
118	0xbe25d4f5	-0.16194518
119	0xbd17e13f	-0.037080046
120	0xbe1adda3	-0.1512361
121	0xbe1fa8e4	-0.1559177
122	0x3eb60761	0.35552505
123	0xbe12aa24	-0.14322716
124	0xbe8a63fa	-0.270294
125	0xbec0f596	-0.37687367
126	0xbd4ab5eb	-0.049489897
127	0xbdcb554a	-0.09928377
128	0xbddd065e	-0.1079223
129	0xbe857db0	-0.26072454
130	0xbdd9d04f	-0.10635435
131	0xbe85d0c9	-0.26135853
132	0xbd81190f	-0.06303608
133	0x3ec9ed0e	0.3943867
134	0x3e2a9968	0.16660082
135	0xbe2e0b50	-0.16996503
136	0xbea729bb	-0.32649025
137	0xbe86e7ea	-0.2634881
138	0xbe3e4e6f	-0.18584608
139	0xbeb6ff85	-0.3574182
140	0x3e77a255	0.24183019
141	0xbef41a97	-0.47676536
142	0xbe0c3666	-0.13692626
143	0x3d650340	0.055911303
144	0x3db3baef	0.08775889
145	0x3e93c867	0.28863832
146	0x3eca06aa	0.3945821
147	0x3e5bb444	0.21455485
148	0x3eb3bea3	0.35106382
149	0xbe62671a	-0.22109643
150	0x3e9b9475	0.303867
151	0x3e174425	0.14772089
152	0xbdb94742	-0.090467945
153	0xbeb6e21e	-0.3571939
154	0x3f042699	0.51621395
155	0xbd5e59a1	-0.054284696
156	0xbd461fcb	-0.048370164
157	0xbd7cf669	-0.061758433
158	0x3edda603	0.4329072
159	0xbecce63b	-0.40019402
160	0x3c620433	0.0137949465
161	0xbe64b7a0	-0.22335672
162	0xbe71972f	-0.23592828
163	0xbee4b4e5	-0.44669262
164	0xbe4b1dee	-0.19835636
165	0xbe8502f9	-0.2597883
166	0xbe92016e	-0.28516716
167	0x3e8c55d2	0.27409226
168	0x3ec2a649	0.3801749
169	0x3d815762	0.06315495
170	0xbdafd91a	-0.08586331
171	0xbe6df6a5	-0.23238619
172	0xbd9ebeac	-0.077512115
173	0x3ec75891	0.38934758
174	0xbe702ac6	-0.23453817
175	0xbe4c5691	-0.19954897
176	0xbed8df31	-0.42357782
177	0x3de5dbe0	0.112235785
178	0x3e79d810	0.24398828
179	0xbeca4ad9	-0.3951023
180	0x3d0771f1	0.033067647
181	0x3e71a06f	0.23596357
182	0xbe24a46b	-0.16078345
183	0x3e42d32a	0.19025865
184	0x3e2f8be1	0.17143203
185	0x3e31f745	0.17379482
186	0x3e8871df	0.26649377
187	0x3e3bd2a2	0.18342069
188	0xbeb5e9b8	-0.35529876
189	0xbecd4dec	-0.40098512
190	0xbeee745a	-0.46573144
191	0xbefcd494	-0.49380934
192	0xbcc5623f	-0.024094699
193	0x3e265b59	0.16245784
194	0x3dca6cfa	0.09884067
195	0x3e0c5cdc	0.13707298
196	0x3e2368a2	0.15957883
197	0x3e1f99d1	0.1558602
198	0x3dede190	0.11615288
199	0x3e987ad6	0.29781216
200	0xbeab17b1	-0.33416513
201	0xbf10f986	-0.5663074
202	0xbe82e114	-0.25562346
203	0x3f239b08	0.63908434
204	0xbcba3e82	-0.022734884
205	0xbe81d92e	-0.25361007
206	0x3e36b04d	0.17840691
207	0xbe721a77	-0.23642908
208	0xbd88f892	-0.06688036
209	0xbe2e85c1	-0.1704321
210	0x3ee3f706	0.445244
211	0x3eda4559	0.42631033
212	0xbe78b886	-0.2428914
213	0x3dc9d5fb	0.09855267
214	0x3e479a53	0.19492464
215	0x3f238903	0.6388094
216	0x3e4ff549	0.20308413
217	0x3e1c31dd	0.15253396
218	0xbe336f86	-0.17523012
219	0x3e998fe6	0.29992598
220	0x3dc20ac8	0.094747126
221	0x3eece274	0.4626652
222	0x3e546fdc	0.20745796
223	0x3e58ab1d	0.21159025
224	0xbe2924c2	-0.16517928
225	0xbddbeede	-0.1073892
226	0x3e632451	0.22181822
227	0x3eb8630e	0.36013073
228	0xbee3cbbf	-0.44491383
229	0xbed9f327	-0.42568323
230	0x3e53abcc	0.20671004
231	0xbe743658	-0.23848855
232	0x3cde1640	0.027110219
233	0x3e8beb8c	0.27328146
234	0x3ee20082	0.44141012
235	0xbe0f684a	-0.14004627
236	0xbe28efb2	-0.16497687
237	0xbed9d948	-0.42548585
238	0xbebb65a2	-0.36600977
239	0x3c5f18f4	0.013616789

weight_hh_l0 f4 [80, 20]
0	0x3e4125b7	0.18862043
1	0xbcb4e4f4	-0.02208183
2	0xbc9ac434	-0.018892385
3	0x3e56ebe8	0.20988429
4	0xbe24fc44	-0.16111857
5	0xbdf71929	-0.12065346
6	0xbe072987	-0.13199435
7	0x3f3867b8	0.7203326
8	0xbe9496ee	-0.290214
9	0x3d8cc0ef	0.06872737
10	0xbdaff531	-0.085916884
11	0xbeade941	-0.3396702
12	0xbcf5542e	-0.029947367
13	0xbd9b427e	-0.07581042
14	0xbd5a1538	-0.053242892
15	0xbe38b783	-0.18038754
16	0xbdd6f775	-0.104964174
17	0xbdeb5b59	-0.114920326
18	0x3e8524d8	0.26004672
19	0xbe33e84a	-0.1756908
20	0x3dda1262	0.106480375
21	0xbe8e30a7	-0.27771494
22	0x3e463041	0.19354345
23	0x3dd53b64	0.104117185
24	0x3cc85ab0	0.024457306
25	0x3db2737d	0.08713434
26	0xbd869130	-0.06570661
27	0x3d98d4f1	0.0746249
28	0xbe0a075e	-0.13479373
29	0x3d539a28	0.051660687
30	0x3e414bf5	0.18876632
31	0x3e038620	0.12844133
32	0x3db4549c	0.088052005
33	0x3e7057b4	0.23470956
34	0x3e77b1c6	0.24188909
35	0xbe52113a	-0.20514384
36	0xbea26c4d	-0.31723252
37	0xbe9085df	-0.28227136
38	0x3e9154bb	0.28384957
39	0xbdb4a869	-0.08821184
40	0xbd846a42	-0.064655796
41	0xbe95f5cf	-0.292891
42	0xbe3f52f3	-0.18683986
43	0xbe3e88e4	-0.18606907
44	0xbd82e0ea	-0.06390555
45	0x3d5e81f6	0.05432316
46	0xbe72274e	-0.23647806
47	0x3d874e7e	0.06606768
48	0x3e2a9e8c	0.16662043
49	0x3e46332a	0.19355455
50	0xbd782845	-0.06058528
51	0x3dbd7b62	0.09252049
52	0xbe1eeb19	-0.1551937
53	0xbe688f7e	-0.22710988
54	0x3c9d84e5	0.019228408
55	0xbe9f6057	-0.3112819
56	0x3d28cca3	0.04121078
57	0xbd83d56c	-0.06437191
58	0xbe4638ef	-0.19357656
59	0x3e3f0ddb	0.18657629
60	0x3ec43d2c	0.3832792
61	0xbde873e8	-0.11350232
62	0xbe8fc346	-0.2807867
63	0xbef18ffe	-0.4718017
64	0xbf4fbe5b	-0.81149834
65	0x3e2cd408	0.16877759
66	0xbe8a2393	-0.26980266
67	0xbe9a3097	-0.30115196
68	0x3e5179ca	0.20456615
69	0x3e3c6ae0	0.18400145
70	0x3de8db97	0.113700084
71	0xbb818dd2	-0.003953674
72	0x3c8467de	0.016162809
73	0xbdeac68e	-0.114636526
74	0xbeec7bf0	-0.46188307
75	0xbe6bf0d8	-0.23041093
76	0x3e3200ed	0.17383166
77	0x3e63918b	0.22223489
78	0xbef77f93	-0.4833952
79	0xbed75b42	-0.42061812
80	0xbdbb856c	-0.091563076
81	0x3dc2daa5	0.095143594
82	0x3dab5193	0.083651684
83	0x3edacaa0	0.42732716
84	0xbe634de1	-0.22197677
85	0xbe108ee5	-0.1411701
86	0xbdc0e3af	-0.09418427
87	0x3e862354	0.26198828
88	0xbe9776a1	-0.29582694
89	0xbe2b4670	-0.16726089
90	0x3db9aa5e	0.09065698
91	0x3e8c1f59	0.27367666
92	0xbe2c8ca8	-0.16850531
93	0xbcd6287c	-0.026142351
94	0x3e530c5c	0.20610183
95	0xbd8e09a4	-0.069354326
96	0xbede774e	-0.43450397
97	0x3e394258	0.18091714
98	0x3e0a9563	0.13533549
99	0xbe1f84bd	-0.1557798
100	0xbdb91196	-0.090365574
101	0xbda3be09	-0.07995231
102	0xbda0fa50	-0.07860243
103	0x3e6635bc	0.22481436
104	0xbe633779	-0.2218913
105	0xbe5249cb	-0.20535962
106	0x3e6592c5	0.2241927
107	0x3ea37fc6	0.3193342
108	0xbe9a5f48	-0.3015082
109	0x3e1b1b96	0.15147242
110	0x3de0d359	0.10977811
111	0x3ef43785	0.47698608
112	0x3e051136	0.12994847
113	0x3e1406e4	0.14455754
114	0xbe04e71f	-0.1297879
115	0x3c2aeb86	0.01043213
116	0xbddcffa7	-0.10790949
117	0xbe7f9ec2	-0.24962905
118	0x3e21d0ba	0.15802279
119	0x3e595d6f	0.21227048
120	0x3e4c277e	0.1993694
121	0xbd9c616f	-0.076357715
122	0xbf3010b8	-0.6877551
123	0x3e51b5bb	0.20479481
124	0xbdc36254	-0.09540239
125	0x3d4930f1	0.04911894
126	0x3e090bdc	0.1338343
127	0x3e7cce1c	0.24688
128	0xbe79bec5	-0.24389179
129	0xbdd3e9ab	-0.10347303
130	0x3d25620f	0.04037672
131	0x3eafffec	0.3437494
132	0x3cf36173	0.029709553
133	0xbd121e39	-0.035673354
134	0xbe3e3c10	-0.185776
135	0x3c9f7c06	0.019468319
136	0xbe5b73e2	-0.21430925
137	0x3ec3c8c0	0.38239098
138	0x3e53b223	0.20673423
139	0xbf04774f	-0.5174455
140	0x3e168d66	0.14702377
141	0xbe0f8a6e	-0.1401765
142	0x3dbebbeb	0.09313186
143	0xbd5aa9cd	-0.05338459
144	0xbec7eef1	-0.39049485
145	0x3d92f8d9	0.0717637
146	0xbe8773c9	-0.26455525
147	0xbef4525b	-0.47719082
148	0x3e5f424e	0.21802637
149	0x3d64d2cc	0.055865094
150	0xbe4aeacc	-0.1981613
151	0xbf00bfb0	-0.5029249
152	0x3ebb8dd2	0.36631638
153	0x3e24d02e	0.16095039
154	0x3d2010d9	0.039078567
155	0xbea83c5b	-0.32858548
156	0xbe04bc06	-0.1296235
157	0xbf36922b	-0.71316785
158	0xbdcdbda1	-0.100459345
159	0xbdf4ca7d	-0.11952684
160	0xbd91b11b	-0.07113858
161	0x3e059ef6	0.1304892
162	0x3c80d085	0.01572443
163	0x3e09fa68	0.13474429
164	0xbe430a9b	-0.19047014
165	0xbebce463	-0.36892995
166	0xbe80156f	-0.25016353
167	0x3d643dfd	0.05572318
168	0xbdbad16f	-0.091219775
169	0x3de61bb3	0.11235752
170	0xbca210c4	-0.019783385
171	0x3ed4dfbe	0.41576952
172	0x3e31d651	0.17366911
173	0x3deb9d9c	0.11504671
174	0x3e303af5	0.1720999
175	0xbe4db601	-0.2008896
176	0xbe964a89	-0.2935374
177	0xbe7a8346	-0.2446414
178	0x3d809e06	0.062801406
179	0xbea0905f	-0.31360146
180	0xbd6d0919	-0.057870004
181	0xbd21c304	-0.039492622
182	0xbeca8daf	-0.3956122
183	0x3e9c833c	0.30568874
184	0x3be3ac76	0.006948049
185	0x3d5ccbb5	0.053905208
186	0xbda4271a	-0.080152705
187	0xbe4808bd	-0.19534583
188	0xbea40812	-0.32037407
189	0x3dde1fa8	0.10845882
190	0x3dcc257c	0.09968087
191	0x3d402846	0.046913408
192	0xbdd24172	-0.10266389
193	0x3e307d5f	0.17235325
194	0xbe989e9c	-0.2980851
195	0x3d00163b	0.0312712
196	0xbdcd42db	-0.10022517
197	0xbd192d95	-0.037396986
198	0xbd8400e0	-0.064454794
199	0x3dc0bf40	0.09411478
200	0xbd8badaf	-0.06820237
201	0x3e75da57	0.24009071
202	0xbe56cbf3	-0.20976238
203	0x3e8de9eb	0.27717528
204	0x3e452347	0.19251738
205	0xbdca4788	-0.09876925
206	0xbe196223	-0.14978842
207	0x3e2551dc	0.16144508
208	0x3da225db	0.079173766
209	0xbcb26c3f	-0.021780131
210	0xbdde72a4	-0.1086171
211	0xbe918725	-0.2842342
212	0xbe01fe72	-0.1269472
213	0x3e9b0da6	0.3028385
214	0x3d82181a	0.06352253
215	0x3d499513	0.049214434
216	0x3df3dc0e	0.119072065
217	0x3e982ef9	0.29723337
218	0x3d9e350e	0.07724963
219	0xbd75d092	-0.06001336
220	0xbead4186	-0.33839053
221	0xbd1c6d29	-0.03819004
222	0xbe73bbe6	-0.23802146
223	0x3ea17cc1	0.31540492
224	0xbe79739f	-0.24360512
225	0xbebdb487	-0.37051794
226	0xbe5c9476	-0.21541008
227	0x3e0a933b	0.13532726
228	0x3ec0e3a8	0.37673688
229	0x3ea34d9e	0.31895155
230	0x3e3de6f9	0.1854514
231	0xbeb17db7	-0.34666225
232	0x3d8c0869	0.068375416
233	0xbc033c42	-0.008009972
234	0x3d84653c	0.064646214
235	0x3dedcaa3	0.116109155
236	0xbeaeadb3	-0.34116897
237	0xbf300d24	-0.6877005
238	0x3d803c10	0.06261456
239	0xbe8a3660	-0.2699461
240	0x3e87fcb1	0.26559976
241	0xbe3ea22d	-0.18616553
242	0xbedefbf7	-0.4355161
243	0x3e9391e7	0.28822252
244	0xbea71dfc	-0.32640064
245	0xbe39151d	-0.1807446
246	0x3e71d4ec	0.2361638
247	0x3ed59206	0.4171297
248	0x3dc974df	0.098367445
249	0x3e9e722a	0.30946475
250	0xbe206e30	-0.15667033
251	0xbe82cafe	-0.25545496
252	0x3eb25c99	0.3483627
253	0x3c8a72f1	0.016900511
254	0xbd3a4d61	-0.04548395
255	0x3c9afdfe	0.018919941

bias_ih_l0 f4 [80]
0	0x3eab9cb4	0.33517992
1	0x3ecf9773	0.40545234
2	0x3de7a877	0.11311429
3	0xbd9c927f	-0.076451294
4	0x3d5c8850	0.053840935
5	0x3e9c04c9	0.304724
6	0x3f05510f	0.5207681
7	0xbcac452a	-0.021029074
8	0x3edb19fa	0.42793256
9	0x3cf37c71	0.029722424
10	0x3e884c17	0.26620552
11	0x3ed7287e	0.4202308
12	0x3eb5778d	0.35442773
13	0x3ea9a21d	0.33131495
14	0x3ecc7995	0.3993651
15	0x3edf1413	0.43570003
16	0xbdaa0a51	-0.08302749
17	0x3e6ed1fe	0.23322293
18	0x3e3320ce	0.17492983
19	0x3ea04af7	0.31307194
20	0x3dc80f48	0.0976854
21	0xbe44fcf5	-0.1923712
22	0xbc691861	-0.014227004
23	0x3dc9f12f	0.09860455
24	0xbe5fd442	-0.21858314
25	0x3e59aff3	0.21258526
26	0xbc6016d2	-0.013677316
27	0xbe5dbe8c	-0.21654719
28	0x3e4441ed	0.19165774
29	0x3e61732f	0.22016595
30	0x3d5b8fbb	0.05360387
31	0x3e663c33	0.22483902
32	0xbd89003f	-0.066895
33	0xbdb1e51a	-0.08686276
34	0xbe3be740	-0.18349934
35	0x3dca0b65	0.098654546
36	0xbe4f03d6	-0.20216307
37	0x3dcaf3f2	0.0990981
38	0x3dd268c3	0.10273888
39	0xbbf8388c	-0.0075751003
40	0xbebf8d5a	-0.3741253
41	0xbdfe8efc	-0.12429616
42	0x3ea998ac	0.33124292
43	0x3e635e2f	0.22203897
44	0x3eb30280	0.34962845
45	0x3d7f6489	0.062351737
46	0xbd79fc09	-0.061031375
47	0xbd9120c0	-0.07086325
48	0x3da3e94f	0.080034845
49	0xbe5eb834	-0.21749955
50	0x3e9a94ce	0.30191654
51	0x3e128c71	0.14311387
52	0xbeb1e22e	-0.34742874
53	0x3d9cee9d	0.07662699
54	0x3d611cf3	0.05495925
55	0xbddd1d73	-0.107966326
56	0x3e004e6d	0.12529917
57	0x3e118c6e	0.14213726
58	0x3e4c0e9b	0.19927447
59	0x3cd7e75c	0.026355438
60	0x3eaf8556	0.34281415
61	0x3e1fb8c9	0.15597834
62	0xbe255639	-0.16146173
63	0x3e1b4855	0.15164311
64	0x3eeae9e3	0.45881566
65	0x3eda82f2	0.42678028
66	0x3e6789bf	0.2261114
67	0x3e0e83ff	0.1391754
68	0x3e80c5bc	0.2515086
69	0x3eb42bfa	0.351898
70	0xbe3396bf	-0.17537974
71	0x3f155891	0.58338267
72	0x3ef28c86	0.47372836
73	0xbc6b59cb	-0.01436467
74	0x3dffd394	0.12491527
75	0x3eabc6d2	0.33550125
76	0x3df12e63	0.11776426
77	0x3ee9541f	0.45571992
78	0x3f155883	0.58338183
79	0x3deeaaf1	0.11653698

bias_hh_l0 f4 [80]
0	0x3e8d89e3	0.27644262
1	0x3db1be5f	0.086788885
2	0xbd606c76	-0.054790936
3	0xbcc0a577	-0.0235164
4	0x3ed3a977	0.4134023
5	0x3e805a0a	0.25068694
6	0x3ef2fcc2	0.47458464
7	0xbe2b606d	-0.16736002
8	0x3ee6c3e0	0.45071316
9	0x3eca9313	0.39565334
10	0xbd3fbd12	-0.04681117
11	0x3f007460	0.50177574
12	0x3d1f215e	0.03885018
13	0x3e851fee	0.26000923
14	0x3e086151	0.13318373
15	0x3e18a3ab	0.14906184
16	0x3e935895	0.2877852
17	0x3e60f520	0.21968508
18	0x3f0e0e63	0.554907
19	0x3e442c08	0.19157422
20	0x3e4ae9d1	0.19815756
21	0xbe11851e	-0.14210936
22	0x3cc785cd	0.024355793
23	0xbda0a447	-0.078438334
24	0x3c9c8c68	0.01910992
25	0x3e4fddf8	0.20299518
26	0xbe856281	-0.26051715
27	0xbed5bc3c	-0.41745174
28	0x3e535cec	0.20640916
29	0xbdeeceda	-0.116605476
30	0xbe4ea242	-0.20179084
31	0x3d187bab	0.037227314
32	0xbe6d0dc8	-0.23149788
33	0xbe1d953e	-0.15388963
34	0xbe0c0ab8	-0.13675964
35	0x3e0cdf27	0.13757001
36	0xbe7123dd	-0.23548837
37	0x3d461d2c	0.048367664
38	0x3e466bb1	0.19377019
39	0x3cf8be9b	0.030364325
40	0xbe442020	-0.1915288
41	0x3d340e81	0.043959145
42	0x3dcdbeb7	0.100461416
43	0x3d90780d	0.07054148
44	0x3e0cbd3a	0.13744059
45	0xbcb4cf3a	-0.02207147
46	0xbe104c89	-0.14091696
47	0x3e547874	0.20749074
48	0xbde3a7ec	-0.11116013
49	0xbd2eaa29	-0.042642746
50	0x3ea1a4d3	0.31571063
51	0xbce9b5cb	-0.028529068
52	0xbe86c525	-0.26322284
53	0xbd9c2405	-0.07624058
54	0x3c788576	0.015168538
55	0x3dc38197	0.09546202
56	0xbe236083	-0.15954785
57	0x3e116928	0.1420027
58	0x3db56005	0.08856205
59	0x3eb28e69	0.34874275
60	0x3e9cc778	0.30620933
61	0x3ec84026	0.3911144
62	0x3dd45d66	0.10369377
63	0x3e75782b	0.23971622
64	0x3eb730da	0.35779458
65	0x3e756cca	0.23967281
66	0x3e6bee6a	0.23040166
67	0x3d8763a4	0.06610802
68	0x3eaf7f50	0.3427682
69	0x3eb79e60	0.35863018
70	0xbc6050bd	-0.0136911245
71	0x3f3d484f	0.7393846
72	0x3ef01bc2	0.46896178
73	0x3dcd1a64	0.10014799
74	0x3e00f536	0.1259354
75	0x3e385ec7	0.18004905
76	0xbca2da07	-0.019879354
77	0x3f1f94cb	0.62336415
78	0x3e79be33	0.24388961
79	0x3e6ba8e6	0.23013648

weight f4 [3, 20]
0	0xbeb748c6	-0.3579771
1	0xbeda2bcc	-0.4261154
2	0xbdb0576d	-0.08610425
3	0xbe5e5b35	-0.2171448
4	0x3de12dac	0.10995039
5	0xbee66bfa	-0.45004255
6	0xbe912109	-0.28345516
7	0xbedb5914	-0.428414
8	0x3e306602	0.17226413
9	0x3e18fb8c	0.14939708
10	0x3edd8907	0.43268606
11	0xbeeaab95	-0.45834032
12	0xbe8a83e8	-0.2705376
13	0xbefe6f86	-0.4969446
14	0xbecc649c	-0.3992051
15	0xbf0f322e	-0.55935943
16	0x3f037c92	0.51361954
17	0xbec7da89	-0.39033917
18	0xbeec4aee	-0.46150917
19	0x3eaed44a	0.3414634
20	0xbe1eed48	-0.15520203
21	0xbe90bd2f	-0.28269336
22	0xbbbee9af	-0.005826197
23	0xbebf7354	-0.37392676
24	0x3f04771c	0.51744246
25	0xbec65a4b	-0.38740763
26	0xbf079c69	-0.5297304
27	0xbe75c1d6	-0.23999724
28	0x3eef35b8	0.46720672
29	0x3edce931	0.4314666
30	0x3ec5f411	0.3866277
31	0x3f7393bc	0.951473
32	0xbe3c505f	-0.18390034
33	0x3d6780ac	0.056519195
34	0xbeceb7b0	-0.40374517
35	0xbec0fd11	-0.37693074
36	0x3e1374a8	0.1439997
37	0xbe874efd	-0.2642745
38	0xbe10a400	-0.14125061
39	0x3ea5a41a	0.32351762
40	0x3ef21dce	0.47288364
41	0xbf16b6c5	-0.58872634
42	0xbe75b843	-0.23996072
43	0xbe63df7a	-0.22253218
44	0x3e94fe35	0.29100195
45	0xbec624fc	-0.38700092
46	0x3e8c4a60	0.27400494
47	0x3eeeab4c	0.46615064
48	0x3ef3452d	0.47513714
49	0xbe8f2ddd	-0.27964678
50	0x3dc57eae	0.09643303
51	0xbe4a2efb	-0.19744484
52	0x3f10187b	0.56287354
53	0xbf01836e	-0.5059117
54	0xbea25d46	-0.31711787
55	0x3ea0abc9	0.31381062
56	0xbe8bfe4a	-0.27342445
57	0x3f2f383f	0.684452
58	0xbef932c7	-0.48671553
59	0xbf1f116c	-0.6213596

bias f4 [3]
0	0xbdd524bb	-0.104073964
1	0xbe6757e1	-0.22592117
2	0x3e1faada	0.15592518
