model/LSTM_model_lorenz96.pt (torch, 37475 bytes, 6 tensors)

weight_ih_l0 f4 [160, 10]
00000000: e598 143e 42a0 f03d 65d0 cebc ab50 1d3c
00000010: ee59 853c c1af 22be 89bc 163e bf8a 65bd
00000020: de48 fcbd 60aa f03c 5d95 7cbd ca83 39bc
00000030: 5c51 e6bd 5951 3dbd 933b 033d 9498 3d3d
00000040: 443f 15bc c05e 583d d06e 14be 8c5e 57bd
00000050: 03a3 69bd 38f9 c3bb 1ddf 2139 3cf7 67be
00000060: 4204 e0bd 59bb b73d 4258 233d 122b 0dbc
00000070: 82f5 8b3d 5b4c 9f3d ada1 863e fcaf f4bd
00000080: 79a8 5e3e 2070 963c b88e 1cbe d336 11bc
00000090: b6cd bdbd 6f71 31be bf02 a83e a79d 043e
000000a0: 50be f2bc 91d1 0dbc 0d3c 8e3e 9be8 2f3e
000000b0: 7a21 10be 3df4 48bd f68f 5d3c 4c8a 93bc
000000c0: a0a6 dabc 08cd 2dbe 55be 433e dd68 1f3e
000000d0: 3644 79bd 5280 3cbc 0c8a b6bd 150a 8d3b
000000e0: a22e a43d 5661 5ebd 13a2 8d3d 6bd4 36bd
000000f0: e9f8 103d 1611 e8bd e037 2bbe 4f7e bcbd
00000100: efba 3b3c 334f 533e f7a8 a43d 1412 a93e
00000110: b81f 6bbc 502c a93c 13a8 cbbc a804 463d
00000120: d0f7 fbbd 577d a4bd c9ba 9abe 6ca6 31bd
00000130: d8f6 f9bc 4f03 613c a825 003d 9c28 a8bd
00000140: 5b83 cfbc 7e3f 96bd 63e5 9e3d 3a58 88bd
00000150: a5a0 583a 9ae8 1dbc 0c70 453e 9b0e debd
00000160: 9eca 683d f2ed 86bd 769e 8c3e 820e 2b3e
00000170: 3be4 123e beb9 fa3c f1b6 2dbe c41a 2c3d
00000180: 555e 7739 fe54 26bc 6bbf 08bd 7412 80bd
00000190: b412 a1bd 3974 90bc e970 9b3d 0bb6 00bd
000001a0: 6e08 d0bd 5fad 03bd 2b3e e8bd 3e23 413d
000001b0: 1dfc 9ebe 564d 14bc 2a01 23be 5b9e 273d
000001c0: c194 1a3d 9ed6 4abe 361c a1bc 64e4 ea3d
000001d0: 0d78 ba3d cb62 8cbe c705 02be 3d5d 98bc
000001e0: 3a84 dbba f9ff 553d 0803 993c 0e10 10be
000001f0: b3af 07be 03a2 593e 6fec 35be bebb 3abe
00000200: ab8e 04be 3218 a53d 172e 8e3d fcc0 813d
00000210: e872 2fbe 775d 2b3e 5c4f 80be 1a7b 98bd
00000220: 632a afbe b1db d23d 5ebe 15ba 8242 c0bc
00000230: d07a 21be f9ef a0be eaeb 0d3d 1962 c4bd
00000240: 7568 2cbd 4cc7 31bd e7a2 0f3e 2e04 7a3e
00000250: faa6 473c 16d7 20be f250 d5bd dfc0 35bd
00000260: 3730 653d 0a18 8fbc 55fa 843e a56e 68bd
00000270: 014c 413d e9a4 053e 9faa 1a3e 7c0d 0dbd
00000280: fcaa bd3c c7b4 6d3e 85e3 0ebe b6bc a238
00000290: f8e4 5e3d 00a3 a83d b00b cdbd b978 273d
000002a0: 3139 73bd ab79 933d 2ee4 393d 81dc 343c
000002b0: d6b8 4ebd 2d2b 54be 71d4 13be 78dd 71be
000002c0: fd57 ccbc 5c35 8e3d 681a 9b3d c81b 23bd
000002d0: 2514 01bd fec5 d53d f716 1cbc 1aec 583c
000002e0: f9b9 82bd fabe aabc a21c 09be 3295 813d
000002f0: f6f5 9fbd e87b 47bd 9180 833d cb4d 8e3e
00000300: fdfb cf3e 27b8 05be fdf0 8ebe 0b87 873c
00000310: 9ef3 843d 945d f439 4718 a4bd 376d 123e
00000320: cb6c bcbc d4ec 6fbc 6b3b a13d fc17 993c
00000330: 83be c7bd 19dd ae3c b19c 88bd a828 7abd
00000340: dfcf 19be cedf 32bd d64d fe3d 4d4e f43d
00000350: e3f7 273d 6e46 bebd fb22 873d c486 25be
00000360: d3d7 2b3e eaef 94bc 05ea 343d 5bdd 57be
00000370: f2cc dfbc ed8a fcbb 3360 0cbd 608e 66bd
00000380: ad63 cebd ff39 b5bd 70be a6bd 6a0d 2a3e
00000390: 3c2e d3bb e832 45bd 4d93 9ebd 623f e73d
000003a0: 2320 62be f67f 63be 4f00 843e a4da 82bd
000003b0: d50b 923e 0a08 073c a09d 94bd 18a1 b2bd
000003c0: e921 313e 2714 043d 203f 1f3c 99e8 d1bd
000003d0: 4c56 903d ba9d c23d 9b6a 81bd c0ea 5dbe
000003e0: 5bea 57be 33a7 11bd 7924 73be c810 7dbc
000003f0: d296 a3bc 31a2 ff3b a6cf 03be 9f28 adbd
0.1451145 0.11749317 -0.025245855 0.009601752 0.016278233 -0.15887357 0.14720358 -0.05604052
-0.12318586 0.029378116 -0.06166588 -0.011322925 -0.11245987 -0.046220157 0.032039236 0.046288088
-0.009109322 0.052824736 -0.14495397 -0.0525804 -0.057040226 -0.005980637 0.00015437273 -0.22652906
-0.10938312 0.089712806 0.03987909 -0.008616226 0.06833936 0.077782355 0.26295224 -0.11947629
0.21743955 0.018364012 -0.15288818 -0.008863169 -0.09267752 -0.17328428 0.32814595 0.12950765
-0.029631764 -0.008655922 0.2778019 0.17178576 -0.1407527 -0.04906105 0.0135230925 -0.018010281
-0.026690781 -0.16972744 0.19115575 0.15567346 -0.060856067 -0.011505203 -0.08913049 0.0043041804
0.08016707 -0.054292046 0.06915679 -0.04463617 0.03539363 -0.11331384 -0.16720533 -0.09203779
0.011458143 0.20635681 0.0804004 0.33021605 -0.014350824 0.020651013 -0.024860417 0.048344284
-0.12303126 -0.08031719 -0.3022063 -0.043371603 -0.030513212 0.013733699 0.03128591 -0.082108706
-0.02533119 -0.07336329 0.07758596 -0.06657453 0.0008263684 -0.009637976 0.19281024 -0.108426295
0.056833856 -0.06588353 0.27464646 0.16704753 0.14344876 0.030606147 -0.16964318 0.042017713
0.00023590897 -0.0101521 -0.033385675 -0.0625352 -0.078648955 -0.017633544 0.07589895 -0.03142361
-0.10157858 -0.03214776 -0.113399826 0.04715275 -0.31051722 -0.009051641 -0.15918413 0.040922504
0.03773952 -0.19808432 -0.019666772 0.11469343 0.09104929 -0.27419123 -0.12697516 -0.018599147
-0.0016747781 0.052246068 0.018678203 -0.14068624 -0.13250618 0.21253209 -0.17765974 -0.1823568
-0.12945049 0.080612555 0.06942385 0.06335637 -0.17133677 0.16734873 -0.25060546 -0.07445355
-0.34212026 0.10295809 -0.0005712266 -0.023469213 -0.15769506 -0.31433085 0.034648813 -0.09589023
-0.042091805 -0.043402955 0.14026986 0.24415657 0.012185806 -0.15707049 -0.1041583 -0.04437339
0.055954184 -0.017467517 0.25972238 -0.056746144 0.047191624 0.1305119 0.1510415 -0.034436688
0.02315282 0.23213492 -0.1395398 7.759912e-05 0.05441758 0.08234215 -0.10011995 0.040886614
-0.059380714 0.07200941 0.045383625 0.0110389 -0.050469242 -0.20719595 -0.14436509 -0.2361964
-0.0249443 0.06943771 0.07573396 -0.039821416 -0.031513352 0.10438155 -0.00952696 0.013239885
-0.06383128 -0.020843018 -0.13389829 0.06327285 -0.07810585 -0.04870215 0.064210065 0.27793726
0.4062194 -0.1305853 -0.27918234 0.016543886 0.06491779 0.00046609028 -0.08012443 0.14299475
-0.023001095 -0.014643867 0.07872661 0.018688194 -0.09753134 0.021345662 -0.066705115 -0.06107393
-0.15020703 -0.043670468 0.1241719 0.11928997 0.041007888 -0.09290777 0.06598469 -0.1616469
0.16781549 -0.018180806 0.04416849 -0.21080534 -0.027319405 -0.007706991 -0.03427143 -0.056288123
-0.100776054 -0.088489525 -0.08141792 0.1660668 -0.0064447206 -0.04814425 -0.07742939 0.11291386
-0.22082572 -0.22216782 0.25781485 -0.06389359 0.28524652 0.008241663 -0.07256627 -0.087221324
0.17298092 0.03224578 0.00971964 -0.102494426 0.0704771 0.0950274 -0.063191615 -0.21671581
-0.21085493 -0.035559844 -0.23744382 -0.0154458955 -0.019969378 0.007801317 -0.1287218 -0.084550135

weight_hh_l0 f4 [160, 40]
00000000: 8d7c cbbd 7a36 043e 4463 803d 193a c5be
00000010: c979 abbd 2741 4a3e b334 483d 96fa c73e
00000020: ba1b e23d 01f1 973e 5918 e53e 91e0 fd3d
00000030: 375f 943e 3e6a 87be ecb7 2f3d bc28 3f3e
00000040: bad3 9ebe a8dd a5be 9102 f63a 96f4 663e
00000050: 86c6 1ebe eef0 51be ef1d 3c3e 5f81 043f
00000060: 3666 47bd 034f 6e3e cea1 713e 2095 86be
00000070: 9ba1 99be 29a9 563b 2216 a23e e597 ffbc
00000080: ae71 9c3e 757e 16bf bbbe e9be 6caf bcbd
00000090: 79ac 8c3e f467 d7be 5f60 533e 0763 77be
000000a0: 7d32 933e b138 ba3d 52bf 6e3c 33f6 a5bc
000000b0: 9a2e e33d 0730 01bd 31c1 f63e f742 2cbd
000000c0: d97a 90be 5559 d7bd c908 563e e8c0 c33c
000000d0: 5386 c13e 69ec 973c 6864 9a3e 2b76 c7be
000000e0: 70c2 cfbd 720c dc3c a712 a93e e8e9 a5bc
000000f0: c9e3 2dbd dd86 9abb f861 1d3e e2c4 2bbc
00000100: da0a 88be b98d 4f3e 21ed a53d b4eb 8cbd
00000110: 082b 52be 2fb1 53be 6094 94be 69f6 49be
00000120: 4cb2 d9be 6b98 79be 8253 95be cf0e dd3c
00000130: 371b d93c 4f88 97be e70a 933d 8937 ebbd
00000140: e9d4 183e 9841 ec3d c129 7b3e a425 0fbd
00000150: 1b7d afbe ba52 053e fece 893e 3427 cc3d
00000160: 37e1 8d3e 8924 ed3d fe79 193d 8ea1 693e
00000170: e712 173f 57e6 763d fceb 223e 1692 32bd
00000180: c5a2 43be 74d2 52be d441 43bf 87ff 113e
00000190: 6b4e 6abe c3c6 123e 4b96 0e3d 5e94 003f
000001a0: 2343 fa3d f483 503e c2eb debd a27d b0bd
000001b0: 9778 bfbe f00a fd3d 6891 fd3d ef48 fcbe
000001c0: 3b24 65be f18e f3bd 6fb1 593c 94a8 e1be
000001d0: 6a72 5e3e a049 0bbf 135d 5bbc 1c0d dcbe
000001e0: 65a2 1cbe 1b6a 6b3e 439a c9bd 56e3 dc3e
000001f0: 63cd cc3c 4b6c 873e b40c 053c 8f5d 0bbf
00000200: 1fe7 3f3e 3f27 3b3e 8b61 e9be 6432 353e
00000210: ecb4 d5be 917b 0abe c792 a2bd 5f4e df3e
00000220: 2611 b3be 1d66 8e3e 5a7d c23d 1dab 65be
00000230: ddbc 143f 034f 03be c2be 553e e976 623e
00000240: 3e0d 52bd 3c09 96bc 30b9 97be facc 7cbe
00000250: 798e e6bd 8dfb a83d d828 203e aab5 c1bd
00000260: c2df 17bd 618e a2be a5a4 ff3d d552 28be
00000270: 2282 9dbd 6fad 0a3e 01d7 133f de2f b53e
00000280: 028e 8cbe 3b55 80be acb1 9fbd 55b9 8abd
00000290: 814e efbd 7847 fa3b 50ff c7bd e01d b93e
000002a0: 7f9f f4bd ca6e 30bc 1a15 5c3e 1ef3 85bd
000002b0: 2050 dcbd 67b7 66be 09bf edbd cfa6 063e
000002c0: 251c 413d d6d8 62be 40b0 9e3e 7ecb 10be
000002d0: 5221 73be 50fd 3f3e c9c5 c6bc e5c6 52be
000002e0: d7ef 8c3e 9201 dbbd e713 b73e b128 5dbd
000002f0: 86d0 92be 53b6 843e 749c b83e 7524 d8be
00000300: 1355 8cbe eb28 6bbd de37 11bf d892 543e
00000310: 35c1 113e 5e30 9ebe 931d 163f b914 1b3e
00000320: 3135 4bbe ce03 1fbe bcb5 6a3e c5c6 f5bd
00000330: 9a0a 0abf 8e2c 603e 0b89 afbd 1a2e 833d
00000340: b7fe dc3e 47d7 84be c74b 4d3e 9542 593d
00000350: 3eb9 41be fbcb 4a3e 7366 703d 6c1d 253e
00000360: 6684 d03d 2291 563e 8a0f b9be 0bea 823e
00000370: 1a52 b2be eefe 8abb ca27 7d3e d5cf 973e
00000380: 9882 38be dc8b 163e 7041 af3e f2c0 36bf
00000390: bf63 15be 30a8 fd3d 3c8c 933e aba8 07be
000003a0: a827 893c 3f25 193d 68b3 3dbe e2a2 ebbe
000003b0: 5672 993d bc04 96be 3fdc b73e 6502 24be
000003c0: 4cef 063e deb5 aa3e e83f 083e 6611 7b3d
000003d0: f701 dfbe 4cdd e83e e9d9 8f3d 2451 813e
000003e0: f14a d1be ce25 17be 3cf7 7f3e c8c3 b53e
000003f0: c358 ee3e a464 283f f178 a53d f512 5fbe
-0.099358656 0.12911406 0.062689334 -0.38520887 -0.08372838 0.19751416 0.048878383 0.3905837
0.11040445 0.2967606 0.44745138 0.12396348 0.28978893 -0.26448244 0.04290001 0.18667883
-0.3102091 -0.32395673 0.0018769075 0.2255424 -0.15505418 -0.20502064 0.18370794 0.51759905
-0.04868146 0.23272328 0.2359688 -0.26285648 -0.30006108 0.0032754636 0.3165751 -0.031200359
0.3055548 -0.5878671 -0.45653328 -0.092131466 0.27475336 -0.42071497 0.20642231 -0.2415887
0.28749457 0.09092844 0.0145719815 -0.020258998 0.11092873 -0.031539943 0.48194268 -0.04205605
-0.28218725 -0.105150856 0.20901789 0.023895696 0.37797794 0.018545346 0.3015473 -0.38957343
-0.10144508 0.026861403 0.33022043 -0.020253137 -0.04245356 -0.004715784 0.15369403 -0.010483952
-0.2657078 0.20268907 0.081018694 -0.06880894 -0.20524228 -0.20673059 -0.2901945 -0.19722904
-0.42518842 -0.24374549 -0.29165274 0.0269846 0.026502235 -0.29596183 0.07179814 -0.11485202
0.14924969 0.115359485 0.24527647 -0.034948006 -0.34275135 0.13019839 0.26915735 0.09968415
0.27710888 0.11579234 0.037469856 0.22815534 0.5901322 0.060278263 0.15910333 -0.04359635
-0.1910506 -0.20588094 -0.7627232 0.14257632 -0.22881477 0.14333634 0.0348113 0.5022639
0.122198366 0.20362836 -0.10884811 -0.086177126 -0.3739669 0.12355602 0.1238125 -0.49274394
-0.22377102 -0.11892498 0.013286932 -0.44073927 0.21723333 -0.5440922 -0.01338889 -0.42978752
-0.15296324 0.22989695 -0.09843876 0.43142194 0.02500028 0.26449808 0.008120704 -0.54439634
0.1874051 0.1827669 -0.45582232 0.17695004 -0.41739595 -0.135237 -0.07938152 0.4361448
-0.3497402 0.2781228 0.09496565 -0.22428556 0.5810068 -0.1282311 0.2087355 0.22115673
-0.05128216 -0.01831495 -0.29633474 -0.24687567 -0.11257643 0.082511045 0.1564058 -0.09458478
-0.037078626 -0.3174925 0.12482575 -0.16437848 -0.076908365 0.13542722 0.57749945 0.35388082
-0.27452093 -0.25065026 -0.0779756 -0.067736305 -0.11684895 0.0076379143 -0.09765494 0.36155605
-0.11944484 -0.010768602 0.21492425 -0.065405115 -0.1075747 -0.225309 -0.11608703 0.1314957
0.04714598 -0.22153029 0.30993843 -0.14140126 -0.2374318 0.18748975 -0.024264233 -0.20583685
0.27526733 -0.10693659 0.35757372 -0.053993884 -0.28674716 0.25920352 0.36056864 -0.42215315
-0.27408656 -0.05741207 -0.5672587 0.20759141 0.14233859 -0.30896276 0.58638877 0.15144624
-0.1984451 -0.15528795 0.22920889 -0.12000803 -0.53922427 0.21891996 -0.08571061 0.064052776
0.43163082 -0.25945494 0.20048438 0.053042013 -0.1891832 0.19804375 0.058691453 0.16124505
0.10181503 0.20953801 -0.36144668 0.25569186 -0.34828264 -0.004241816 0.2472221 0.2965075
-0.18018568 0.1470179 0.34229612 -0.7138816 -0.14588831 0.12385595 0.28817928 -0.13247935
0.016742542 0.037389036 -0.1852547 -0.46022707 0.07492511 -0.29300487 0.35910222 -0.16016538
0.13177222 0.3334188 0.13305628 0.06129589 -0.43556187 0.45481336 0.07023985 0.25257218
-0.40877488 -0.14760515 0.24996656 0.35500932 0.46552095 0.65778565 0.08079708 -0.21784575

bias_ih_l0 f4 [160]
00000000: ef20 2d3e d8b0 423e d4d0 b73d fcdc d53e
00000010: f8d3 9a3e 52d8 663d 3a37 e13d 39eb 083e
00000020: 0314 303e 9d69 793e 13a1 a63e c3a1 9e3e
00000030: 94ac 8d3e 9a39 663e 5088 603e cf2b 863d
00000040: 2d74 9fbb 0ab6 8c3e ec4e 013e 3ccf ad3e
00000050: 6086 8e3e 4be8 4c3e d87b 603e 9c89 433e
00000060: efc1 2a3e c168 bc3e b72a 4e3e 299d 683d
00000070: 04ac 8a3e a831 d53e dd23 e13d 8222 033c
00000080: cdc7 863e 93f7 423d 17b0 af3d 1502 993e
00000090: d0e1 283e 047d 483e a67a 763e 43fd 0a3e
000000a0: 4cfa 0f3d d404 cb3d c6ee 353e 6104 2abe
000000b0: 5831 15be 8b09 a53d 3caf c43b a8ff 01be
000000c0: fe88 a93d fc27 c53d ec24 ac3c ef21 18be
000000d0: e7a8 3bbd 358d 573d 3066 1ebe a55b aabd
000000e0: cc6f 773e 85ca 073e b123 aabd ea85 0f3e
000000f0: 05c9 793d 05d4 943e 525e 9ebd a28f 30bd
00000100: 6c16 2f3e 79fe 993d b538 8dbc 1657 413e
00000110: 2417 293e 5f21 153d e751 3fbe df1c 26be
00000120: b2c7 73bd 4b88 a1bd 0470 42bb 8632 9ebd
00000130: dbab cd3d 9165 823e 4e30 f53d dd59 bf3d
00000140: f491 3a3c 2f9d 86be 7642 35be 4d24 0f3d
00000150: 7c49 893e 1429 e8bd 7dc2 03bd 4ff7 99be
00000160: 2376 2a3b 99ac 82bc 7228 debd 62e1 94be
00000170: 927b babc 6c6e 90be 509d 18be b196 cabd
00000180: d480 713e 7eef 30be 0558 523e 522c dabe
00000190: 5dfe 713b 1aaa 1f3e 3c27 723c fa93 7dbe
000001a0: 7c99 223e d760 05bf 1005 16bd 6059 973d
000001b0: e926 6f3e 51a2 8dbb 15be a4be c0ab 0ebd
000001c0: 9ec5 3fbd bb40 f53d e64b e93c db92 2e3e
000001d0: 7cdc f8bd 4cf6 6b3d add8 0f3d 05fe 7c3e
000001e0: 883c c03e 98aa fa3e b978 1a3f 7428 053f
000001f0: 0a70 e93e 4b98 043f f792 183f 6b8a 903e
00000200: 1452 263f 9a18 263f b651 303f 7d67 df3e
00000210: d3b4 213f 39c7 b43e 307f d53e 060d 413f
00000220: c8eb de3e 2c24 223f 0b09 293f af59 ac3e
00000230: 6c5c 9d3e 13c6 233f fd88 2e3f 5d32 ea3e
00000240: 1b76 c03e ea3c c43e 6dd6 223f ce68 b53e
00000250: 8b7a 0b3f 3e0c 1a3f c367 a83e b6a8 793e
00000260: 8170 2b3f 6873 143f 0278 2d3f 5e52 133f
00000270: 7457 b53e 17e7 2d3f 27c1 343f 0c4b 133f
0.16907094 0.19012773 0.08975378 0.4177016 0.30239844 0.056358643 0.10996862 0.1337098
0.17195134 0.24356695 0.32544765 0.3098279 0.2767073 0.22482911 0.21926999 0.065513246
-0.004866144 0.27482635 0.12627763 0.3394717 0.27836895 0.20010488 0.21922243 0.19095463
0.16675542 0.3679867 0.20133482 0.056790505 0.27084363 0.41639447 0.109931685 0.008003833
0.2632431 0.047599386 0.08578508 0.298844 0.1649239 0.1957894 0.24070224 0.13573174
0.03515081 0.0991303 0.17766866 -0.16603233 -0.14569604 0.08058461 0.006002335 -0.12695181
0.08278082 0.09626767 0.0210137 -0.14856695 -0.045815375 0.0526249 -0.15468669 -0.08318261
0.24163741 0.13260849 -0.08307589 0.14015928 0.060982723 0.29068008 -0.07732834 -0.04310573
0.17098397 0.0751924 -0.017238954 0.18880877 0.16512734 0.03640878 -0.18683587 -0.16221951
-0.059516616 -0.07887324 -0.0029668817 -0.0772448 0.100425445 0.25468114 0.11972104 0.09343312
0.011387337 -0.26291797 -0.17701134 0.03494673 0.26813877 -0.1133596 -0.0321679 -0.30071494
0.0026010356 -0.015951442 -0.10847558 -0.29078203 -0.022764001 -0.28209245 -0.1490376 -0.09892023
0.235843 -0.17278859 0.2054139 -0.4261194 0.0036925294 0.15592232 0.014779862 -0.2476348
0.15878862 -0.5210089 -0.03662592 0.07390094 0.23354687 -0.004322328 -0.3217627 -0.034831762
-0.04681932 0.11975237 0.028478574 0.17048208 -0.12151429 0.057607934 0.035118748 0.24706276
0.37546182 0.48958278 0.6034046 0.5201485 0.45593292 0.5179488 0.5959925 0.28230605
0.6496899 0.6488129 0.6887468 0.43633643 0.6316654 0.35308245 0.416986 0.754105
0.43539262 0.63336444 0.66029423 0.33662173 0.30734575 0.6397411 0.6817778 0.4574155
0.37590107 0.38327724 0.6360844 0.35431522 0.5448386 0.6017493 0.32891664 0.24380764
0.6696854 0.57988596 0.6776124 0.5754756 0.35418284 0.6793074 0.7060723 0.5753639

bias_hh_l0 f4 [160]
00000000: 5458 e03d dadb 4a3e 18cb 853e 5e56 d93e
00000010: 1359 0e3e 2076 ab3d db70 823d e07f cb3e
00000020: cbcb d63e b840 583d dccb 693e 2034 793e
00000030: ecea 9c3e 0a7b 603e acf7 aa3d 8be1 bf3d
00000040: 559c 0e3e 8e1f 393e c538 043e f375 c93d
00000050: 114b 993e 0e22 1f3d c92d 703e c9b5 bb3e
00000060: a443 343e 8ab5 6d3e 4e92 923e d9a4 f73d
00000070: 51d3 023f b9b5 823e d631 5abc 5f5f 1bbd
00000080: 1af8 203e c66e 8d3d 78e0 8b3e c48d 4a3e
00000090: ab4b 473e fe14 943e 5215 863b 3ffe 323e
000000a0: e687 113e a77c 39be 6f2b 3a3d 986e c6bd
000000b0: 0328 acbd 0c4b bc3d 12dc a53d 36e4 07be
000000c0: bf84 653e ccc6 88bd d257 9d3e c09e b9bd
000000d0: c2de 54be b306 0b3e 0ba7 013e 1aca 293c
000000e0: a8dd 7e3e edde f1bb 6cfa 313d 7c11 dabc
000000f0: 6a37 bbbd 6058 be3d 5855 14be 984c e33d
00000100: b567 253e 0c0a 243e 2661 3ebd c234 803e
00000110: 875f ee3d 6640 383e 78fa dcbd 8abb cc3d
00000120: 6450 113e aee0 013e 0edf 34bd cfa1 ae3d
00000130: 2713 703d e553 63bd 8098 0a3e 4db6 be3d
00000140: 0c3f 3ebe 1d33 acbe a2ff 2fbd 5ba3 823e
00000150: 0348 783e 6ebc 00be 0232 80bd 2945 b9be
00000160: ff49 303e e737 1b3e ef5e 4cbe 7784 94be
00000170: 4ef2 e93d 3880 94be af6e 75be 4b9a bc3d
00000180: 5649 6c3e 412d c23d b724 de3d f2f1 72be
00000190: ad17 073e aed9 063e 8929 083e 1fca 39be
000001a0: df2c 613d 0c5c d3be 7a2a afbd edfc 143e
000001b0: d874 b33e 03aa 6fbd 46f5 a2be c647 693e
000001c0: 4978 dfbc 12cd b1bd abb0 4e3e 9278 b13c
000001d0: 0c73 99be 0828 253e 88f1 e0bd 31c2 163e
000001e0: d52e 053f d7d5 973e 5fcb f53e 5fd8 9c3e
000001f0: 5c32 5c3e cd24 043f 052e 203f a3df 003f
00000200: 43dd ff3e 386f 123f 7bc7 313f d74a c83e
00000210: c8b2 343f 75c7 dc3e 0bf9 fe3e 6ab7 013f
00000220: ff07 f03e 927c 263f fa5a 1b3f 3070 9d3e
00000230: 9b83 c33e 3308 d53e f19c 203f 8c20 c33e
00000240: aecb dd3e 5ac3 bf3e ee4c 193f 0c93 203f
00000250: c0df b83e 2462 473f 1cfe a93e db7e a23e
00000260: 1d13 013f 1bba 0d3f b362 423f a33b 283f
00000270: 0862 273e b2f1 383f 970f 2d3f a768 b33e
0.10954347 0.19810429 0.2613151 0.42448705 0.13901167 0.0837214 0.06369182 0.39745998
0.41952357 0.052796096 0.22831672 0.2433629 0.3064798 0.21921936 0.08348021 0.09369191
0.13926823 0.18078443 0.12912281 0.0983695 0.29940084 0.038850836 0.23454966 0.3666213
0.17603928 0.23213783 0.28627247 0.12091989 0.51103693 0.25529268 -0.013317546 -0.03793275
0.15719643 0.06905894 0.27319694 0.19780642 0.19462459 0.28922266 0.004091897 0.174798
0.14211997 -0.18113957 0.045451578 -0.09689063 -0.08406069 0.091940016 0.08098616 -0.1327065
0.2241392 -0.066785425 0.30731064 -0.09063482 -0.207881 0.13576774 0.12661378 0.010363126
0.24889243 -0.007381311 0.04345171 -0.026619665 -0.09141429 0.092942 -0.14485681 0.110985935
0.16152842 0.16019458 -0.046479367 0.2504025 0.11639314 0.17993316 -0.107899606 0.09996708
0.14190823 0.12683365 -0.044158034 0.08526956 0.058612015 -0.05549993 0.13534737 0.09312115
-0.18578738 -0.33632746 -0.0429684 0.25515255 0.2424622 -0.1257188 -0.06259538 -0.36185578
0.17215727 0.15158044 -0.1995809 -0.29007313 0.11423169 -0.29004073 -0.23968004 0.092091165
0.2307485 0.09481288 0.108468466 -0.23725107 0.13192625 0.13168976 0.13297094 -0.1814351
0.054974433 -0.41281164 -0.08553024 0.14549609 0.35050082 -0.058511745 -0.31827754 0.22781286
-0.027279036 -0.08681692 0.20184581 0.021663938 -0.29970586 0.16128552 -0.109835684 0.14722516
0.52024585 0.29655334 0.48006722 0.30633828 0.21503586 0.51618654 0.6257022 0.5034124
0.49973497 0.57200956 0.6944501 0.39119598 0.705853 0.43120924 0.4979938 0.5067049
0.468811 0.6503383 0.60685694 0.30749655 0.38186345 0.41607818 0.62739474 0.3811077
0.43319458 0.3745373 0.5988301 0.62724376 0.36108208 0.77884126 0.33201683 0.31737408
0.5041979 0.553621 0.75931853 0.65716 0.1634599 0.722438 0.67601913 0.3504078

weight f4 [10, 40]
00000000: caa1 21bc 43a9 12bd e58a 833d 7435 703f
00000010: 028d 3eba 9d76 eb3e 218a c5be 9930 e1be
00000020: a4ef 5cbd b4e0 e43d 7de4 de3c ad2d 103e
00000030: d1bc 1abf 8506 cf3e 42c1 e2bd 2af8 f33d
00000040: 4cf0 14be 408e 9bbd e05c 5e3e 7a05 0d3e
00000050: bb46 fd3d 5322 95be 8da4 c5be dc68 9cbe
00000060: bcc6 9cbe 97c0 ab3e 3c5a 23bf aa6e 033e
00000070: f216 013f 18ad 743f ae67 123e 5604 01bf
00000080: c621 36bf dfcc 4abe ad16 e23e e714 d53d
00000090: 069a 1b3f 9d4a 1e3f 0262 bf3d 4586 eebe
000000a0: 85f5 14bf 6cb5 56be 889e 323d f7f3 b9be
000000b0: b1c6 90be f112 d4bd 7bc1 e73c 9ce5 ef3e
000000c0: 8832 883b 1afd cebe 5ab2 3b3f bae6 0bbe
000000d0: 5e82 ea3e f395 7ebd dea7 06bf f20e c03a
000000e0: 241c d03d 8541 6e3e 9b24 22be b4fe 793e
000000f0: aaf0 d03d 7a77 1ebe 036e 8dbd 558b e8be
00000100: 689a 2f3f bddd 253e f242 853f 9b88 c73e
00000110: 96d5 053e ca0c 433f 1153 553f 95f1 f9bc
00000120: c65d 55be f380 0b3e e73d d73e 548d a43e
00000130: 708f 083e 55f8 093f 7989 533e 1a29 103f
00000140: 5751 3bbf b750 0abd c703 25bf 9d81 f03e
00000150: 44c8 eebe ac6f 53bf 8682 943e daab a6be
00000160: 6a5a d63d 87fb b4be e225 8d3e 3729 633e
00000170: 70f5 b73b 3661 f3be 24a5 b0bd 3543 7c3e
00000180: 9f04 19bf 3dfb 2c3f ed6f ab3d 4c32 3dbf
00000190: 469d 78be 6cac 7bbd 64b8 bf3c b3ca 1bbd
000001a0: e801 cabe a28c ffbe 9db6 d43e ce86 98be
000001b0: 8536 d9be dbc8 0a3e 14d0 a53e 2718 ab3e
000001c0: 5948 533c 8d1d 5a3e 1399 963e 2a7e 163f
000001d0: 68fa fe3e 03a0 f8be 1424 91be d773 b1be
000001e0: be61 c03e 422e 6bbe 336a ffbe c6ed 0abe
000001f0: 2275 1e3f f7bc 5e3e e072 33be 16f3 9f3e
00000200: 59d6 d23c b0e5 873f 73ee 073e e8d3 9d3e
00000210: 93d9 08bf 0c0c 0fbf 3f75 17bf 75b5 ca3d
00000220: 8ae2 fabe 87d4 34bf 01e1 883e ef1c 3ebe
00000230: 6915 5a3e 31e5 a1be 197e 42bc 466e f1be
00000240: 54f1 5e3e 7b52 d0be 708c 6c3d e527 ef3c
00000250: 9e82 7bbe c67b a23c 6f5b 303f 1f72 f43d
00000260: 103d 92bb 24de ca3c 5024 75bf d092 97be
00000270: c6f4 063f 2c79 083e ae96 0d3d 3cf0 e3be
00000280: 4d6a b83e f1b3 f93e e0b3 5bbf b782 02be
00000290: fd7d 9b3e 935d c2be 2e8f 6bbe 019c 783e
000002a0: c397 3d3f b201 093f 2857 76bd 27c4 1a3f
000002b0: be12 433e 07ee 09bf 40a0 19be ed26 ad3d
000002c0: a951 4d3f 226a 003f f803 36bf fb10 733e
000002d0: c9e4 7cbc d5f1 073f 67f0 743e e608 1e3e
000002e0: e3c6 beba 9f3d a73e ffc9 74be 2834 00be
000002f0: e6e8 953e 634b d23d 72dc 3dbd 477d a33e
00000300: 4e32 0a3e 24e4 b8bc 980d fc3e ae6c 10bf
00000310: 3f47 c13d 5fb4 e03e 7cd0 5e3e 71a2 c5be
00000320: 64a7 a0be 01fa d93d 981f 96be 065a a43d
00000330: 6ffe 13bf 161f 75be 3e7a c63d e136 b5be
00000340: 67b7 393f 3131 003f ae86 41be 1561 2cbf
00000350: 42b1 343f 32c0 903e 495f 7f3e f632 b7be
00000360: 1a09 9d3e a08c ecbe 7567 153f cd3f 5bbe
00000370: 3619 07bf 0ca9 8c3e 6170 e1be b38f d33e
00000380: 493e ab3d 5f83 b53d 0d9b 85bd ae74 f2be
00000390: a5f0 7cbe f6cd ea3e ced1 023f 8b35 9fbe
000003a0: b8d6 e93d 03d2 23bf e6e7 7c3d f228 8cbe
000003b0: 7c67 4abd 2c60 8e3e ccab 66bf 1fec 1a3d
000003c0: a42e 62bd 3c99 c33e 2c9f 2e3f d7b8 e0bc
000003d0: c6cd cabd 9855 433e 1257 243f 2ac6 ecbe
000003e0: 9fa3 083f aba1 953c 3dd2 10bf 6fd8 f2be
000003f0: d8f2 69bf 9889 b9be 33fc 89be 42f7 88be
-0.009865234 -0.03580595 0.064229764 0.93831563 -0.00072689366 0.45988932 -0.38581946 -0.4398239
-0.053939477 0.11175671 0.027208561 0.14079924 -0.6044436 0.40434662 -0.11072017 0.11912568
-0.14544791 -0.075954914 0.21715117 0.1377162 0.123670064 -0.2912775 -0.38602105 -0.3054875
-0.30620372 0.33545372 -0.6380956 0.12835184 0.50425637 0.9557662 0.14297363 -0.5039724
-0.71145284 -0.19804715 0.44157925 0.104043774 0.60781896 0.618326 0.093448654 -0.46586815
-0.58187133 -0.20967644 0.04360822 -0.36318943 -0.2827659 -0.10355175 0.0282905 0.46854866
0.0041564144 -0.40427476 0.7331902 -0.13662234 0.45802587 -0.06215472 -0.52599895 0.0014652892
0.101616174 0.23267181 -0.15834276 0.24413568 0.10202153 -0.15475264 -0.06905749 -0.45418802
0.6859498 0.16197868 1.0411055 0.3897141 0.13069758 0.7619139 0.83329874 -0.030510703
-0.20836553 0.13623409 0.42039415 0.32139075 0.13335967 0.5389455 0.2065791 0.56312716
-0.7317099 -0.033768382 -0.6445889 0.46973887 -0.46637166 -0.8259227 0.2900583 -0.32552987
0.10466464 -0.3534815 0.27567965 0.22183691 0.005613975 -0.47535104 -0.08625248 0.24635012
-0.59772676 0.6757086 0.083709575 -0.7390487 -0.24278745 -0.06144373 0.023403354 -0.038035106
-0.3945458 -0.49911982 0.41545573 -0.29790348 -0.42424408 0.13553183 0.32385314 0.33416864
0.012895667 0.21300335 0.2941366 0.5878626 0.4980042 -0.4855958 -0.28347838 -0.3465869
0.3757457 -0.22966865 -0.4988571 -0.13567266 0.6189748 0.21751772 -0.1752429 0.31240147
0.025736975 1.061697 0.13274555 0.30825734 -0.5345699 -0.5587776 -0.5916328 0.098978914
-0.4900096 -0.7063679 0.26734164 -0.18565725 0.2129723 -0.31620172 -0.011870884 -0.47154444
0.21771747 -0.40687928 0.05775112 0.029193828 -0.24561545 0.01983441 0.68889517 0.11935829
-0.0044628456 0.024764128 -0.95758533 -0.29604197 0.52717245 0.13327473 0.034567527 -0.44519222
0.360186 0.48770097 -0.8582134 -0.12745176 0.3036956 -0.37962016 -0.23003837 0.24278261
0.74059695 0.5351821 -0.060141712 0.60455555 0.19050118 -0.53878826 -0.15002537 0.0845469
0.8020273 0.50161946 -0.71099806 0.23736946 -0.015435406 0.5310338 0.23919831 0.15433082
-0.0014555122 0.326642 -0.2390518 -0.12519896 0.2927925 0.10268285 -0.04635281 0.31931517
0.13495752 -0.022569723 0.4922912 -0.5641583 0.09437417 0.43887612 0.21759218 -0.38600495
-0.3137771 0.106433876 -0.2932098 0.08024983 -0.5781011 -0.2393764 0.096912846 -0.35393432
0.72545475 0.5007506 -0.18899032 -0.67335635 0.70582974 0.28271633 0.24938692 -0.35781068
0.30671006 -0.46201038 0.5836099 -0.21411057 -0.52772844 0.27472723 -0.4403105 0.4132057
0.08361489 0.08862948 -0.06523714 -0.47354645 -0.24701174 0.4586026 0.51101387 -0.31095538
0.114179075 -0.6399233 0.061744593 -0.2737499 -0.049415097 0.27807748 -0.9010589 0.03782284
-0.05522026 0.38202846 0.68211627 -0.027431889 -0.099025294 0.1907562 0.6419536 -0.46244937
0.53374666 0.018265566 -0.565708 -0.4743075 -0.91386175 -0.36237788 -0.26950225 -0.26751143

bias f4 [10]
00000000: c65e 01bd e613 d43d 044d d4bd 1bb1 e63c
00000010: 65c6 8f3d ba64 9dbd b900 333e 7fc2 fd3d
00000020: 4c8a 56bd e174 c1bd
-0.031584524 0.10355358 -0.10366252 0.028160622 0.07020263 -0.07685228 0.17480744 0.12390613
-0.052377984 -0.09446121
